…
        "              optimizer=optimizer,\n",
        "              metrics=['accuracy'])\n",
        "\n",
        "# Let us have a look at the model topology\n",
        "model.summary()"
      ],
      "execution_count": null,
      "outputs": [
        {
          "output_type": "stream",
          "text": [
            "Model: \"sequential\"\n",
            "_________________________________________________________________\n",
            "Layer (type)                 Output Shape              Param #   \n",
            "=================================================================\n",
            "conv2d (Conv2D)              (None, 28, 28, 6)         156       \n",
            "_________________________________________________________________\n",
            "module_wrapper (ModuleWrappe (None, 28, 28, 6)         0         \n",
            "_________________________________________________________________\n",
            "max_pooling2d (MaxPooling2D) (None, 14, 14, 6)         0         \n",
            "_________________________________________________________________\n",
            "conv2d_1 (Conv2D)            (None, 14, 14, 16)        2416      \n",
            "_________________________________________________________________\n",
            "module_wrapper_1 (ModuleWrap (None, 14, 14, 16)        0         \n",
            "_________________________________________________________________\n",
            "max_pooling2d_1 (MaxPooling2 (None, 7, 7, 16)          0         \n",
            "_________________________________________________________________\n",
            "flatten (Flatten)            (None, 784)               0         \n",
            "_________________________________________________________________\n",
            "dense (Dense)                (None, 100)               78500     \n",
            "_________________________________________________________________\n",
            "activation (Activation)      (None, 100)               0         \n",
            "_________________________________________________________________\n",
            "dense_1 (Dense)              (None, 10)                1010      \n",
            "_________________________________________________________________\n",
            "activation_1 (Activation)    (None, 10)                0         \n",
            "=================================================================\n",
            "Total params: 82,082\n",
            "Trainable params: 82,082\n",
            "Non-trainable params: 0\n",
            "_________________________________________________________________\n"
          ],
          "name": "stdout"
        },
        {
          "output_type": "stream",
          "text": [
…
